mnist_model.pth (torch, 440176 bytes, 6 tensors)

fc1.weight f4 [128, 784]
00000000: 330b 653b ab29 b2bc 43ff c439 2586 003d
00000010: 698e bebc 98fe 86bc 4d33 dcbc 9b1d 0d3c
00000020: b18f 273d 75c4 61bb ebf6 e1bc cc98 043d
00000030: 24cd a1bc 5bf2 39bc 0286 c53c 3f3b 843a
00000040: f933 1d3a f254 a3bc 6ac7 dc3c 8bb0 e8bc
00000050: 5a95 cc3c 9217 073d 659f 5ebb 444b c23c
00000060: 9de4 4ebb 50e9 a4bb d10a f9bb 02d7 a2bc
00000070: d94f 5ebc 9395 5d3b eb29 c7bc c676 9a3c
00000080: 2982 253d 6d5e 1ebc 805d 063d a9a6 36bc
00000090: 6a67 e6bc 2b1d 0cbb f8bb cd3c 3237 093d
000000a0: e63f c03c 3d4d e2bc d214 85bc f23d a03b
000000b0: c08c e83c b305 883c 55f0 273d 1186 1a3d
000000c0: bc66 a03c 1a1d d93c 42d4 dc3c 024f cbbc
000000d0: 32e1 b43c 518c 813c f77d 753c 9459 e73c
000000e0: b39d 5f3c 2496 cabc 4dab a1bc 1b74 0abb
000000f0: 7a83 f83c 5df9 bebc fa11 913a c731 243c
00000100: a654 8cbc d9ba 843c 5a8b c13b 6a8f 893c
00000110: 20cb ccbc 8d69 1a3d 0e6e acbb c604 97bc
00000120: dfe8 743a cb75 eabc 10f3 9dbc e2a9 d93b
00000130: ca8c ff3c 135e 693c 0dac 67bc f3d4 183d
00000140: 9bdb 3f3c 1a04 103d fb4f 74bc 1ace b33c
00000150: 8f17 79bc a0e1 83bb 72ac d6bc 2a56 cc3b
00000160: 5e28 cf3c 9382 edbc 8e43 043d 1bb7 283d
00000170: a88e b43a dd3d bebc 91f2 ecbc 044f ffbc
00000180: 7511 c73a 3cd2 d73c df95 913c 1159 5dbc
00000190: 9429 833c 3297 a0bc e5e3 c9ba d893 823b
000001a0: c5fd 683c 18c9 6bbc 542c 9b3c 89ac a8bc
000001b0: b069 d4bc 3a36 e43c a3c5 513b 52f4 a13b
000001c0: 5e0e e83c 1272 80bc b77d 7d3c 201d ae3c
000001d0: b8f9 b93c 03c3 1a3d aacf d4bb 2059 9ebb
000001e0: 54c6 e23c 5d0c 333c 0a84 cd3c 7223 753c
000001f0: f4e9 2c3c dc8a 10bd ec61 b8bb 4191 efbc
00000200: c0d5 31bc 47e4 2b3c dcaa 373c e577 a83c
00000210: a719 b33b 9e4f 46bc 7e69 38ba d5e5 5f3b
00000220: ce59 a9bb 4bf6 253d 7bfb b1bc 3712 003d
00000230: 5902 7dbc 0e62 fb3c a559 16bc 4078 d6bc
00000240: f1c9 72bc 8f23 7d3c c0fd ce3c 0f8f 8ebc
00000250: d418 1b3c 4001 083b 7c8e c43b 2b09 773c
00000260: 0581 23bd 3631 09bd 32c7 22bd f2d5 f3bb
00000270: 0bdc e03c 8732 883c 6565 9a3c 7e3f b0bc
00000280: 0b4f b13c dfa4 d8ba 7e46 d03c ffa9 38bc
00000290: 88cc adbc 09b2 1ebc a2bd 9f3c aa5b aab7
000002a0: 2486 bfbc 2142 033b 0884 073d a75e 583c
000002b0: 955a dcbc 1e52 f0bc d52b 923c 72b4 12bd
000002c0: 7102 d0bc 8046 80bc 4992 493c 8668 1cbd
000002d0: 9ed0 0fbd f0eb ce3c dc83 da3c a60c 83bc
000002e0: 3225 133d 1d6a ba3c 1f9c 163d 7f23 053d
000002f0: 150a 92bb 245a a33b 53f9 adbc d557 cb3c
00000300: d316 683b e462 bfba 4683 9b3c cd22 69bc
00000310: a3c0 e0bc 5357 243d 4c83 78bc 65ae 1b3c
00000320: a4bf 9ebc c82d 95bc d9c2 90bb 0fa3 d9bc
00000330: 3531 df3c 865b 38bc 66b4 e2bc 53f8 c5bc
00000340: 7575 22bd 0223 043b 7200 ea3c f599 803c
00000350: 64dd b33b 05a7 dd3c b8fe 1dbc 1a1f 84bc
00000360: e4dc cdbc e4b9 abbc 9ed1 703b eca6 1dbc
00000370: d66b 8e3c 5582 303c 5b21 913b d522 313c
00000380: d795 5d3c 4364 513c 3a1b f93c 9f97 f2bb
00000390: e9c9 943c 7346 263b 50eb 443c f6b1 9b3c
000003a0: c447 00bd 00dc cebc f495 803c fd6a 0fbb
000003b0: c723 c03b 4c21 c73c 19c9 f13c 35ee 24bb
000003c0: 6ccf 68bc 35fd 823c 0779 e03c 1863 d6bc
000003d0: 24df bb3c 6d1d 31bc f975 103a ef73 0b3d
000003e0: ade5 2dbb 226e 953b 9ebe b2bb 2bb0 09bb
000003f0: 25f3 eabc 76b6 c93c 34c0 8bbb dbbb 0ebc
0.0034949302 -0.021748384 0.00037574218 0.03137793 -0.023261266 -0.016478822 -0.02687993 0.0086130155
0.04090852 -0.0034449373 -0.02758356 0.03237228 -0.019751139 -0.011349286 0.024111751 0.0010088457
0.0005996819 -0.019937966 0.026950557 -0.028404495 0.02497356 0.032981463 -0.0033969518 0.02371753
-0.003156937 -0.005032696 -0.0076001664 -0.019877914 -0.013568842 0.0033811077 -0.02431198 0.018855464
0.040407334 -0.009666068 0.032804012 -0.011148133 -0.028125484 -0.002137969 0.025114045 0.033499904
0.02346797 -0.02762472 -0.01624528 0.004890197 0.028387427 0.01660428 0.041000683 0.037725512
0.019580238 0.026503135 0.026956681 -0.024817947 0.022080038 0.015813978 0.014983646 0.028240956
0.013648438 -0.024729796 -0.019735003 -0.0021126333 0.03033613 -0.023312265 0.001106798 0.0100216335
-0.017130207 0.016202377 0.0059065046 0.016792018 -0.024999201 0.037698317 -0.005262143 -0.018434893
0.0009342562 -0.028620621 -0.01928094 0.006642566 0.031195063 0.01424362 -0.014140141 0.03731246
0.011710073 0.03516016 -0.014911647 0.021948863 -0.015203371 -0.0040246993 -0.026205275 0.0062358575
0.025287803 -0.028992927 0.032290988 0.041190248 0.0013775425 -0.023222858 -0.028924258 -0.031165607
0.0015187698 0.026345365 0.01777166 -0.013510005 0.016011037 -0.019603346 -0.0015403001 0.0039849095
0.01422066 -0.014391206 0.018942036 -0.020590084 -0.025929302 0.027857888 0.003200867 0.0049424553
0.028327163 -0.015679393 0.015471867 0.021254122 0.022702083 0.037783634 -0.006494482 -0.004832402
0.02768246 0.010928241 0.025087375 0.014962064 0.010553826 -0.035288677 -0.0056269076 -0.029244067
-0.010854185 0.010491437 0.01121017 0.020564983 0.0054657045 -0.012103943 -0.00070347625 0.003416409
-0.0051681763 0.040518086 -0.02172636 0.03126737 -0.015442454 0.030686405 -0.009176646 -0.026180387
-0.014818654 0.015450372 0.025267482 -0.0174022 0.009466369 0.0020752698 0.005998431 0.015077869
-0.039917964 -0.033494197 -0.03974075 -0.0074412758 0.027448675 0.016625656 0.018847177 -0.02151465
0.021644136 -0.0016528628 0.025424238 -0.011270999 -0.021215692 -0.009686002 0.019499604 -2.0308264e-05
-0.023379393 0.002002843 0.0330849 0.013206161 -0.026898662 -0.029336032 0.017843166 -0.035816617
-0.02539179 -0.015658617 0.0123029435 -0.03818562 -0.035111062 0.025258988 0.026674204 -0.015997242
0.035924144 0.022755677 0.036769982 0.032504555 -0.0044567683 0.004985111 -0.021237051 0.024822155
0.0035413995 -0.0014601615 0.018983494 -0.014229489 -0.027435606 0.04012234 -0.015168022 0.009502028
-0.01937849 -0.018210307 -0.004417759 -0.02656701 0.027245143 -0.01125229 -0.027673911 -0.024166262
-0.039662797 0.0020162468 0.028564665 0.015698412 0.0054890383 0.02705718 -0.009643249 -0.016128112
-0.025129743 -0.020962663 0.0036746035 -0.009622317 0.017385405 0.010773261 0.004429025 0.010811527
0.013524494 0.012780252 0.03040849 -0.0074033285 0.018162685 0.002537158 0.0120189935 0.019005757
-0.03131844 -0.025251389 0.015696503 -0.0021883838 0.00586364 0.02430787 0.029514836 -0.0025166397
-0.0142096095 0.01598988 0.02740146 -0.026170298 0.02293355 -0.010810238 0.00055107434 0.03404611
-0.0026534603 0.004560248 -0.0054548522 -0.0021009545 -0.028680393 0.024623137 -0.0042648558 -0.00871178

fc1.bias f4 [128]
00000000: 7d9c 1236 9531 b13c 40bd 13bd 370b 8dbc
00000010: 2c8b 17bd 1bef b73a 8915 993c cbec e13c
00000020: 9f62 44bb 911b 03bd 5c39 01bd f1c1 b2bb
00000030: 2d8f 8fbb daae 3cbb a990 c7bc bc50 48b9
00000040: 9ab0 323c b31c 113d 047c 3d3a 015c b6bc
00000050: 47b3 4dbc 953b 163c 3209 12bd 769e 52b9
00000060: f725 e8bb e1f0 c13b aea4 b43c 4f08 053c
00000070: 3c2a 013d ffec 583c c14f 193c 6e95 273c
00000080: fc66 21bc 8650 8ebc 4de6 513b 5a1d 24bd
00000090: 2edb 08bc f4d8 56bc 545f 1cbc c5b7 debc
000000a0: 8c77 673a 877a 6b3c d776 6ebb 4c31 8d3c
000000b0: 776a 0cbd 39a6 af3b 873b f1bb ad80 b23b
000000c0: 53a9 2a3c cc00 8bbc c4e3 153d 5d21 d7bc
000000d0: e2e2 9a3c ddb5 9f3c e1ff 223b 52f6 ecbc
000000e0: 630a ba3c a48c 0c3c 4649 2c3d 65f5 803c
000000f0: 4c26 76bc 837e ab3b 48ce 4a3a 0f64 22bd
00000100: 7ef0 cdbc fc5f 8bbc 4cf9 a1bc 7ab1 ae3c
00000110: 4032 5e3c 0c73 e33c bbce a03c 69a5 28bd
00000120: e3ce a1bb dbd3 81bc 0e57 49bb 5cdb 153b
00000130: aa30 9d3c df4c 07bd 6488 70bd 3423 17bd
00000140: 55dd 2b3d 7c05 4a3c 3160 0dbd d6fc 2cbd
00000150: db97 8a3c 87ce aeba 555e bf3c 3466 fdbc
00000160: 2d4f 19bc d35d 953c 8bd6 1cbb 61a3 ab3b
00000170: 3be4 1c3c beb0 b93c 432a b0bc 9d00 af3b
00000180: 815d 6cbb a470 f83c d2b7 12bd 114b 38bd
00000190: 8947 70bc 63a0 a03c fd5c 1abd cc7a c93b
000001a0: a504 3b3c 99d1 fb3b ea08 883a 3407 20bd
000001b0: 1e1f 3a3c 909e e73c 3fa4 da3b a675 28bc
000001c0: 4fb9 893b e946 b0bc ee3b 13bd b0b5 79bc
000001d0: 9a20 443c 8e53 b2bc a23d 0abd 23d4 b3bc
000001e0: b6dc 8d3c 172b d1bb ded6 1ebd 07bb 4abd
000001f0: 26b3 c2bc e16a 853c 6a63 37bb bac0 94bc
2.1846784e-06 0.021630088 -0.036069155 -0.017217262 -0.03699796 0.0014033051 0.018687027 0.027578732
-0.002996601 -0.03200871 -0.031548843 -0.0054552485 -0.0043810816 -0.0028790743 -0.024360972 -0.00019103562
0.010906363 0.03542776 0.00072282576 -0.022260668 -0.01255495 0.009169479 -0.0356533 -0.00020086192
-0.007084604 0.0059186076 0.022051182 0.008119657 0.03153442 0.013240098 0.009357394 0.010228498
-0.009851214 -0.017372381 0.003202814 -0.040067054 -0.008353038 -0.013113249 -0.009544212 -0.027187238
0.00088297646 0.0143724745 -0.0036386752 0.01723542 -0.03428122 0.0053603915 -0.0073618325 0.0054474683
0.010416347 -0.016968153 0.036594167 -0.026261026 0.018907014 0.019495899 0.0024871754 -0.028926048
0.02271003 0.008578453 0.042062066 0.015742013 -0.015023779 0.005233587 0.0007736427 -0.039646205
-0.02513909 -0.017013542 -0.019772194 0.021324862 0.013561785 0.02776482 0.019629827 -0.041173372
-0.004937993 -0.01584809 -0.0030722055 0.0022866344 0.019188244 -0.033032294 -0.058723822 -0.036898807
0.041959126 0.012330409 -0.034515563 -0.04223331 0.016918113 -0.0013336696 0.02336041 -0.030932523
-0.009357256 0.018233215 -0.0023931589 0.005237982 0.009575899 0.022667285 -0.021504527 0.0053406493
-0.0036066475 0.030327149 -0.035819836 -0.044993464 -0.014665493 0.019607728 -0.037686337 0.0061486717
0.011414682 0.007684898 0.0010378633 -0.03906937 0.011359958 0.02827385 0.0066724117 -0.010281956
0.0042029987 -0.021518188 -0.035945825 -0.015241072 0.011970663 -0.021768358 -0.033750184 -0.02195174
0.017317157 -0.0063833105 -0.038779132 -0.04949477 -0.023767065 0.016286315 -0.002798284 -0.018158305

fc2.weight f4 [64, 128]
00000000: 80ca 1ebb a585 0bbe 772a 5a3d d67f 88bd
00000010: d79b 973c 4d57 edbd 7ab8 55bd feb5 36be
00000020: 7f11 a63d 90e1 91bd d48e 293e 6e56 073d
00000030: 34fc 30be 6095 bbbd 6e35 b5bd 04f0 82bc
00000040: 3b72 8b3d 3e58 a53c 6937 073b e4ad 9fbd
00000050: f773 e2bd f4e4 503d ec40 2fbd 2a30 4ebe
00000060: b7c7 bcbd 049e 283d f6fc d7bc e646 683d
00000070: 1a5b b9bc 9ec9 a33d f8a9 0f3d c32f 0abe
00000080: b6bd bbbd 81bb 84bd e9ba 8e3d 44f5 8ebd
00000090: d95a e3bb cc7c 4e3d e509 793d ce2b 9abd
000000a0: 085d 8f3c a166 913c 9b6f 223d 73e0 283d
000000b0: 972e b03d ed44 a7bc 4b94 80bd d7a8 efbd
000000c0: 9245 31bd 8738 e5bb 3bde 5b3d cad1 4dbb
000000d0: 7c70 153d e647 24be 8601 7abd 27de ef3c
000000e0: 91cf 563d 51f2 023d 1297 ccbd 20fc 2a3d
000000f0: f460 143d c2d2 f4bd ea50 6c3c 2b2e a13d
00000100: 5651 063d b5f9 6d3c 8fd9 ad3c 42dc ecbd
00000110: 9f69 c4bb 0a2e cf3d a1ad 0f3e 0525 86bd
00000120: 882b a5bd 173a 2d3d c842 b1bd 19ed 32bd
00000130: 540c d93c abce 56be 53e4 9b3d f147 f43d
00000140: b7f7 28be 747e ec3c ad6b bfbb 8333 913d
00000150: d3eb bb3c 932f e7bd ef2f a13d 8486 03be
00000160: 50d8 b73d e9f0 593d 1950 403e ac40 05bd
00000170: 8236 4c3d 44c3 94bd 34d3 453e 197b b9bd
00000180: d47c 103c 9488 d9bc 5b09 313c 8075 7cba
00000190: 2120 92bd 9f2e 58be 98ff 0d3c 7b4d 0dbe
000001a0: 79f5 8b3c c0bf abbd 4bb0 bfbb 3b50 06bc
000001b0: 08e8 b53d 4a83 383d 0fa8 b33d d078 4c3c
000001c0: 80b9 02bd 2c90 433d 5612 08be 5fc3 50bd
000001d0: 794b 2dbd 3b1f 7bbd fc75 ebbd aacb bf3d
000001e0: f6a0 963c 1ef2 55bc bee0 41bd 875d 09be
000001f0: 3e74 943b 99a1 7fbd 969d 91be 0f22 a6bd
00000200: 9bd1 4fbd ba73 34bd 8432 7a3d e344 6cbd
00000210: 5fad 1dbd 6089 40bd 2985 1dbd f841 8ebd
00000220: 66eb 42bb cffc 9abd 14bb 413c 7d51 97bd
00000230: cdd7 493b 5351 0ebd b7e4 a1bc 53f4 9dbd
00000240: d74a 4fbd f6e4 303d 1254 b13d e5dd 213c
00000250: 87e8 d8bd 08fc 36bd 0f75 773c 260a 83bd
00000260: 424b 5ebd 69db 93bd 79e5 073d 419e 1dbd
00000270: e65d fe3b dc48 6dbd 1ec5 983d 8de2 3b3d
00000280: 70d2 d0bb d6b0 693c 8803 ff3c 4fc9 06bc
00000290: 2565 95bd a7a5 9bbd ffb2 8bbd 140a 44bd
000002a0: eabb 8bbd 5211 a03d b7fc 04be 44c2 98bd
000002b0: fac3 a6bc 45c7 0e3d 35f5 ae3c 4fb6 ef3b
000002c0: 65b1 9dbd 7e0c d7bd ad12 e23a 07e6 b4bd
000002d0: cd60 30bd f114 99bc a1bc 9eba 78ad 583d
000002e0: d2a8 943d b822 63bd 7b79 4f3d 69c8 ecbc
000002f0: 3674 1fbc ce17 c03a 1c9d afbd 8bb1 8c3d
00000300: 2d2c fd3c 629e ccbd 3795 7b3b 145a 77bd
00000310: 65f2 91bd b1ba c7bd 1835 283d 2f7c 123d
00000320: 38c8 94bc 6010 813c 8e03 5ebd faf2 9fbd
00000330: a93f 9cb9 75f2 193d f20e 9abd b891 c3bd
00000340: 6a33 313d f56e 923d 4726 2a3d 59c3 98bd
00000350: 9e33 31bd 3160 76bc 16be 59bd 9700 39bb
00000360: 8e62 8e3d e82b 05bd ee66 9b3c 1522 1fbd
00000370: 681a 143d 6c94 d7bd 425b 8fbd 6b8d 32bd
00000380: 4d2b 7a3d c539 893c dd88 bcbd c826 823c
00000390: 1e14 8a3d 4d30 b13c f0ab f2bb f764 b6bd
000003a0: 3e25 a7bd ba16 87bd 0001 733c 8f56 7a3c
000003b0: 5297 d6bc fb3e bfbd 3e9b d5bc 6477 7ebd
000003c0: 4bdd aebd a223 7f3d e163 173c 72c5 9f3c
000003d0: bbe3 b83c 6e2b 3f3c 56dd 873d aa5c edbd
000003e0: 9565 93bd ae64 7c3c f33b 9a3d 7b7e 82bd
000003f0: 02f4 773c 6281 9abd c9c1 6b3c de3f 95bd
-0.0024229586 -0.136252 0.053263154 -0.06665008 0.018506927 -0.11588917 -0.052177884 -0.17842862
0.08108806 -0.07123101 0.16558391 0.03304141 -0.17283708 -0.091593504 -0.088480815 -0.015983589
0.06808897 0.020183679 0.0020632392 -0.07796839 -0.11057275 0.050999597 -0.042786524 -0.2013556
-0.0921778 0.04116632 -0.026365738 0.05670824 -0.022626448 0.0799744 0.035074204 -0.13494782
-0.09167044 -0.06481076 0.06969244 -0.069803745 -0.00693832 0.050411984 0.06080045 -0.07527886
0.017500415 0.017749133 0.039657217 0.041229676 0.08602636 -0.020418609 -0.06278285 -0.117021255
-0.043279238 -0.006995264 0.053678732 -0.0031405562 0.036484227 -0.16043052 -0.06103661 0.029280735
0.052444045 0.031969372 -0.09989752 0.04174435 0.036225274 -0.11954261 0.014423588 0.07870134
0.03279241 0.014524867 0.021221904 -0.11565448 -0.0059940363 0.10116203 0.14031078 -0.0655003
-0.080649436 0.042291727 -0.08655316 -0.043683145 0.026495136 -0.20977275 0.07611909 0.11927784
-0.16500746 0.028868891 -0.0058416934 0.07089903 0.022939598 -0.11288371 0.07870471 -0.12844282
0.08976805 0.053208265 0.18780555 -0.03253238 0.04985667 -0.072638065 0.19318849 -0.09056682
0.008818824 -0.026554383 0.010805453 -0.0009630546 -0.07135034 -0.21111535 0.008666895 -0.13799088
0.017084824 -0.08386183 -0.005849873 -0.008197839 0.08882147 0.045047082 0.08772289 0.012479976
-0.031915188 0.047744915 -0.13288245 -0.05096757 -0.042308304 -0.06130908 -0.11497113 0.09365018
0.018387299 -0.0130582135 -0.04733347 -0.13414584 0.0045304587 -0.06240997 -0.2844054 -0.08111965
-0.050737005 -0.044055678 0.06108333 -0.057682883 -0.038495418 -0.04700601 -0.03845707 -0.06946176
-0.002974236 -0.07567751 0.011824388 -0.073885895 0.0030798793 -0.034745526 -0.01976238 -0.07712617
-0.050608482 0.043187104 0.08658613 0.009879564 -0.10591226 -0.04467395 0.015103593 -0.0639842
-0.05427099 -0.072195835 0.033177827 -0.038481 0.0077626584 -0.057930812 0.07459472 0.045870353
-0.0063727424 0.014263352 0.031129614 -0.008226707 -0.072946824 -0.07599955 -0.0682125 -0.047861174
-0.06822951 0.078158036 -0.12987028 -0.07458928 -0.02035712 0.034858007 0.021357158 0.007315434
-0.07699851 -0.105004296 0.0017247997 -0.08832937 -0.043061066 -0.018686743 -0.0012110659 0.052899808
0.072587624 -0.055453032 0.050652962 -0.028904157 -0.009732297 0.0014655532 -0.08574888 0.06869801
0.030904854 -0.099911466 0.00383885 -0.06038864 -0.07126311 -0.097524054 0.04106626 0.035762962
-0.018161878 0.015754879 -0.05420261 -0.07810016 -0.0002980207 0.03758474 -0.07522382 -0.09549278
0.043261923 0.071500696 0.04154041 -0.074591346 -0.043262117 -0.015037582 -0.053159796 -0.0028229111
0.069523916 -0.032512575 0.01896998 -0.038850863 0.036157995 -0.10526356 -0.06999828 -0.043591898
0.06107645 0.01675118 -0.09205792 0.015887633 0.06742118 0.021629477 -0.0074057505 -0.08905976
-0.081614 -0.065961316 0.014831781 0.015279426 -0.026195202 -0.093381844 -0.026075002 -0.06212558
-0.08538302 0.06228984 0.009240122 0.019503329 0.022569528 0.011668069 0.06634013 -0.1158994
-0.071971096 0.015404863 0.07530966 -0.063717805 0.01513386 -0.07544209 0.014389464 -0.07287572

fc2.bias f4 [64]
00000000: 987d b839 2657 fdbc fda0 a33b 93d8 e23d
00000010: 5ee9 f5bc f3a0 c73c a251 dc3c 16b2 46bc
00000020: 791b 663c 85ad d83d a77c cabd b894 7c3c
00000030: abfc 88bd 26a1 553d c065 eb3c 1b26 fb3c
00000040: 48fa d93d 5618 f23c 3501 553c 6e83 263e
00000050: 659d 0b3d 6b4b d9bd cc15 32bd 593b 9b3d
00000060: 811a 99bc 2309 8b3d adb5 89bb 0726 9e3d
00000070: 034b d3bc a8c0 b3bd a2ac 8ebd 14f9 09be
00000080: 19b1 d6bb 7f09 c5bc 6969 ae3c 114f b73d
00000090: 7434 2a3e 7d17 0dbe 685b c3bd a139 613d
000000a0: 45b6 d53d 37bb bc3b c1de 82bb de8d 10be
000000b0: ca6b 41bd 43ab acbd d2fa bfbd 0088 d93d
000000c0: 4eea a43d 3209 e63d 38a4 88bd ac86 6fbd
000000d0: f15e 0cbc 71e1 413d e46e b3bd a655 abbd
000000e0: 025a 933c 6e99 f7bb d003 16be f89d 04bd
000000f0: 7a0f a2bc 7600 1d3c 9079 cc3d 5c0c c03c
0.0003518879 -0.030925345 0.0049935565 0.110764645 -0.030018505 0.024368739 0.026894394 -0.01212742
0.014044636 0.10579971 -0.09887057 0.015416317 -0.066888176 0.052155636 0.028735042 0.030657819
0.106434405 0.02955262 0.013000776 0.16261074 0.03408565 -0.10610088 -0.04347782 0.07579679
-0.018689396 0.06788852 -0.0042025656 0.07722097 -0.025792604 -0.08776981 -0.06966521 -0.13473922
-0.0065518734 -0.02405238 0.021290498 0.089506276 0.16621572 -0.13778491 -0.09538919 0.0549866
0.10435156 0.0057596224 -0.0039938395 -0.14116618 -0.047221936 -0.08431103 -0.09374012 0.10621643
0.080525026 0.112322226 -0.06671947 -0.058478042 -0.008567558 0.04733414 -0.08761385 -0.083659455
0.017987255 -0.007556132 -0.14649892 -0.032377213 -0.01978277 0.009582629 0.09984124 0.023443393

fc3.weight f4 [10, 64]
00000000: 5fe8 a73c 9cf8 5cbd 4186 a13d 17ce 5fbe
00000010: 17b5 87be 62e0 25bd f18a 2d3d 5c89 37be
00000020: c905 16be 218c f43d 0723 1e3e e580 fd3d
00000030: 2da8 083e fb64 2e3e d173 16bd 079a 4fbe
00000040: d36c 9e3d 5874 103e 03a8 2c3d 47ef 0cbe
00000050: 2d9f bc3d d517 18be 4d7e c8bc bda3 a13a
00000060: 1946 33be 501d 0e3e b723 2c3d 3b80 c1bd
00000070: 9305 c33d 9366 c6bd 8304 0c3e 16a9 0bbe
00000080: c54a 203e 91b2 bcbd 76d4 d73d 1d7e 7b3d
00000090: f288 6fbd a3cd 15bd 5010 5dbe 2cf0 9f3c
000000a0: 3d15 c53c 68b8 05bd b72b b4bd fbe9 82bd
000000b0: e590 b3bd eaf5 3bbd 6d23 fdbd 617a d1bd
000000c0: 7ddd 48be 0f05 6bbe 2455 053d d23a 52be
000000d0: 1f08 20bd ea7b f0bd d4a7 c3bd 184d 45be
000000e0: 3d92 9e3e 9cfa 59be 9d2a 95be 6869 3c3d
000000f0: 3d11 113e 4710 c33d f062 1bbe 49da 0c3e
00000100: 78cc 12bd d3e0 04be 3fbf 67be d3a2 0fbe
00000110: a529 7abe 4e3c 3d3e 14b5 e1bc 4af2 0fbd
00000120: ec45 26be 9abc 85be 8d51 95bc f1bf ebbb
00000130: 349d 65bd c493 03be fd44 2a3e bac6 94be
00000140: 7130 4dbe 36a6 73bd 2a9a 8b3b 25ae 063e
00000150: e67b 25bd f2a9 e93d 7e2f 92be 67ad cabd
00000160: fa8c 663e 5648 8cbc 436d 1e3e 1be1 913d
00000170: 8d31 f1bd 9d3a b6bd b46b 75be 0cab 19be
00000180: 08b4 953e 29a8 513e 5322 f1bc 9fc3 6cbd
00000190: d74e fc3b 8f3a ffbd 2952 d1be 678a 0dbc
000001a0: 1f29 10be dfc8 473e 0a67 54be 723a 853c
000001b0: 31d6 793e a2e4 e638 6f02 2c3e 5d18 0dbd
000001c0: d0c0 183e ad3a de3d 8730 e73d 291f 703e
000001d0: 8bad c1bb 2ca0 8dbc f0f7 5c3d 3112 32bd
000001e0: fad3 603e 42d9 59be 4148 91bd 5176 3d3d
000001f0: 878a 913d c024 8dbb 9eed 9bbe b654 043e
00000200: cfcb 93be 2e60 38bd eedf a13d 25e2 06be
00000210: 1f1c 13be f37e 32be a55d c9bd 6888 54be
00000220: 7d75 fabd e7d0 f83d 87ea 803d 7f69 95be
00000230: 1b03 20be 25dd 06bc 0451 a03d b515 17be
00000240: 17f3 49be 59ef e43d 371d d43d e788 19be
00000250: fefa c13d 1889 e93c 4cf3 2c3d 35ae 74be
00000260: a7c3 04be 78ef f3bd 8e32 c5bc cbb3 13be
00000270: ecef f23d 055c 033d ba18 f03b 6385 bebd
00000280: 9aa5 893d 02f9 013e 9142 0d3e 3dc6 6cbd
00000290: d594 97be 4238 7dbd 5fe0 463e f6c4 c63d
000002a0: 0543 d03d 516e 6b3d 0e09 5e3d ef59 0b3e
000002b0: 3268 f4bd 2b08 143e c856 00bd 0c02 333d
000002c0: d093 ac3c 8e4e b13d 07ff 193e fed9 d73d
000002d0: 38cf bdbd 40a9 83be a93f 4dbe 2fe4 343e
000002e0: aafa 93be 6d1d 613e 294d de3d ab14 b0bd
000002f0: 7909 0e3e 425a 5ebd 05d9 1b3e e400 0a3d
00000300: 39a4 d5bc 47f5 bbbc 7dad 94be 3a19 3dbd
00000310: 7ea3 573e f2c9 00be 00fb c83d d56d 033e
00000320: 0e38 48be 54ae 543d 495c 10be 2388 34be
00000330: 185a 5e3d 7eb1 233e 99b9 b33d e343 133e
00000340: 150d e03d 539c e1bd c397 d6bd cd6f 033e
00000350: 2d27 003e 21c9 063e 67e1 bd3c 8361 98bd
00000360: ca59 033e 5075 b03d 8732 dbbd b811 933b
00000370: 9648 92be 6ec9 923c ba8e bc3b 864e fe3d
00000380: 3a90 503e 1181 433e 1369 713d ef32 a83d
00000390: 689f 043e 7580 9f3d e77d bfbd 9a2e 1d3d
000003a0: 298a 84bd aada 87be 3c72 bdbd 844c debd
000003b0: 4d25 613c 5934 52be 38e2 57be abe4 a4bc
000003c0: f22b d43d 3c3d 27bc 0f4c 8d3c 5018 55be
000003d0: d07b be3d 274b 77bd c4f7 74bd 3f58 78bd
000003e0: a7ab ddbd 901c a43b e5aa efbc 2932 a7bd
000003f0: f4d9 89bd 9eec e3bd b28f 8b3e 3b4b 8ebd
0.020496545 -0.05394803 0.07886935 -0.21855961 -0.26505348 -0.04049719 0.042368833 -0.17923492
-0.14650644 0.1194079 0.1544305 0.123781 0.13345404 0.17030708 -0.036731545 -0.202736
0.077356 0.14106882 0.042152416 -0.13763152 0.09210048 -0.14852841 -0.024474287 0.0012332123
-0.17507209 0.1387837 0.042026248 -0.09448286 0.095225476 -0.09687533 0.13673596 -0.1363872
0.15653522 -0.09213746 0.105385706 0.061399568 -0.05848021 -0.036573064 -0.21588254 0.019523703
0.024057979 -0.032646567 -0.087974004 -0.063922845 -0.08767871 -0.04588882 -0.123602726 -0.1022842
-0.19615741 -0.22951148 0.0325519 -0.2053025 -0.039070245 -0.11742385 -0.09553495 -0.1926769
0.30970946 -0.21287006 -0.29134074 0.04599896 0.14166732 0.09524589 -0.1517446 0.13755144
-0.035839528 -0.12976389 -0.22631548 -0.14026956 -0.24429949 0.18480036 -0.027552165 -0.035143174
-0.1623761 -0.26120454 -0.018227363 -0.007194512 -0.056058124 -0.12849337 0.1662788 -0.29057866
-0.2003801 -0.059484683 0.004260321 0.13152368 -0.040401362 0.114093676 -0.2855186 -0.09896355
0.22514716 -0.017124336 0.15471368 0.071230136 -0.11777029 -0.08897898 -0.23966867 -0.15006655
0.29238915 0.20474304 -0.029435312 -0.057803746 0.007699828 -0.12462341 -0.40882996 -0.008638955
-0.14078186 0.1951022 -0.20742431 0.01626322 0.24398114 0.00011009841 0.16797803 -0.034447063
0.14917302 0.10851035 0.11288553 0.23449387 -0.0059105805 -0.01728829 0.05394739 -0.04347438
0.21955863 -0.21274284 -0.070938595 0.046255413 0.071065 -0.0043073595 -0.30454725 0.1292294
-0.2886643 -0.0450136 0.07904039 -0.13172205 -0.14366196 -0.1743124 -0.098323144 -0.2075516
-0.1222944 0.1214922 0.062947325 -0.2918205 -0.15626185 -0.008231436 0.078279525 -0.14754374
-0.19721638 0.111784644 0.10357135 -0.1499363 0.09471701 0.028507754 0.042224213 -0.2389458
-0.1296526 -0.119109094 -0.024071958 -0.14424054 0.11862168 0.03207018 0.0073271664 -0.09302785
0.06721039 0.12692645 0.13794924 -0.057806242 -0.29605737 -0.06182123 0.19421528 0.09705536
0.10169033 0.057478253 0.054207854 0.13608526 -0.11933936 0.14456241 -0.03133276 0.043703124
0.021066576 0.08657561 0.15038691 0.105396256 -0.092680395 -0.25715065 -0.20043816 0.1766517
-0.2890218 0.21983881 0.10854561 -0.08597692 0.13870801 -0.054285295 0.15219505 0.033692256
-0.026079284 -0.022944106 -0.2903861 -0.046166636 0.21058461 -0.12577036 0.098134995 0.12834866
-0.19552633 0.051924065 -0.14097704 -0.17630057 0.05428514 0.15985677 0.08775634 0.14381365
0.10939995 -0.110161446 -0.10478165 0.12835617 0.12514944 0.13162662 0.02317877 -0.07440474
0.1282722 0.086161256 -0.10702997 0.004488196 -0.28571004 0.017918315 0.005754319 0.12417321
0.20367518 0.19092204 0.058938097 0.0821284 0.12951434 0.07788173 -0.09350186 0.03837452
-0.064716645 -0.26534015 -0.09250304 -0.10854438 0.013741803 -0.20527782 -0.2108239 -0.020128569
0.103599444 -0.0102074705 0.017248182 -0.20810056 0.09300959 -0.060374405 -0.0598066 -0.060631033
-0.10823756 0.0050082877 -0.029256294 -0.08163864 -0.067310244 -0.111291155 0.27258068 -0.06947943

fc3.bias f4 [10]
00000000: 55b9 03bd b362 16be 7cae 35bd c8e6 48bd
00000010: 560e 7ebd e837 cdbd c44f f9bd 71ad 793d
00000020: 2bad c73c adaf 3bbc
-0.03215917 -0.14686088 -0.044355854 -0.049048215 -0.06202539 -0.10020429 -0.12173417 0.060956422
0.024374565 -0.011455459
